data.pth (torch, 19095 bytes, 6 tensors)

l1.weight f4 [8, 320]
00000000: 5241 a13e 9a4e 2c3f 65a9 5fbe 4a1d 213f
00000010: b831 283f 2f39 5e3f 3355 e43d 2c9f 663d
00000020: a8e3 09bf d584 573f b6fd 723f 6f18 8a3e
00000030: 0f52 073f 57d5 a23f 6d37 f0be 9fe2 a43e
00000040: a3df 753e 3a23 333d 28fd 3fbe 3a54 f73c
00000050: 7446 363d 6bf3 be3e 8439 b63f 3b6b 993e
00000060: 4cf2 a23f 354e bc3e 53d2 ae3e 4ddc 9e3d
00000070: 22ef ce3f 4946 89bf d1ce fe3f dfa7 0040
00000080: 92bd b7be 7b83 30bf d806 5cbf cc62 913d
00000090: 60c9 5dbf 90df 053f 06b7 863e 9047 5cbf
000000a0: b085 b93f 98ef e63f fa01 25bf 9174 a83f
000000b0: cb93 16bf da2d 0940 a9ef 933f 2c86 a5bf
000000c0: 95dd 8d3f 2ee2 863f fbaa d0bd 15fc cabe
000000d0: 1e6b f53f 317a 1cbf ae42 683f d07e c63f
000000e0: e1f0 833f 3544 c03e 186c e23e 175b 983f
000000f0: cfd6 933f f9e4 f33f 30c3 5bbf cd60 bdbe
00000100: db37 67be 67d5 a93d 19a8 ef3e 896d 06bf
00000110: 3aaf 093e c601 babd 0732 cb3d 54b8 823e
00000120: aadb 583f 3da1 433f 83ef 7ebe b59a 4fbf
00000130: 93e6 dabe 6cba 5bbf 014b 993f f3ec c33f
00000140: 1e6f 5cbf 4078 133f fdb3 aa3f 0643 a73f
00000150: aeb2 973f 59bd 16bf 4d47 a63f 19f9 d23f
00000160: 05d2 ce3d 5383 3b3f 5da7 a13f 317e aabe
00000170: e7cf 273f bb8b 8f3f 37b3 9d3f 7504 9e3f
00000180: ee2b 5cbf ac00 4b3f 93c3 f63d 4049 853f
00000190: 5e2e 07be a23a e43f f363 5bbf c4ab 78be
000001a0: dcf8 5f3f 1335 573d 8cdd 693d 594e 0340
000001b0: 4285 5bbf b66b 893e b491 bb3f bd51 b6be
000001c0: 67a4 d43f f227 42bf ac87 aa3f edb1 2c3e
000001d0: 64b5 813f 65a3 c23f 8eae f1bd 9e8a 963f
000001e0: 4793 bf3f d0c8 9dbf 8329 e3be d365 243f
000001f0: d5d1 213f 87be e8be d2db e8be c623 5cbf
00000200: 4bfc 1d40 82ee ecbe 26d2 06bc d1e1 9c3f
00000210: 602f 10bf 8ceb dfbe 42aa ec3f a009 0e3f
00000220: 73a1 a03f a6d1 ab3e 3fd6 563e 1420 90bf
00000230: ed7d 193f 9629 ac3f 3cfe 91be fbb1 643f
00000240: 743a 6cbf abb0 483f 7177 513d 43e6 58bf
00000250: 7b9d 4fbf ee54 22be 7834 02bf 6cb3 013e
00000260: 89f9 ee3f e51e afbe f3cd 603f 1831 ac3d
00000270: 6306 763e f231 603e 742d f9be 5f49 7ebf
00000280: 600f 09bf 1dd3 6dbf 719c 5cbf d3e6 81bf
00000290: 13b3 993f c249 b5be 90a3 1cbf 698c be3f
000002a0: 2b01 a93f e4e4 9cbc adfc 63bf f419 393e
000002b0: be6d 4fbc 7376 cabd b4de 28bd fa74 a83f
000002c0: b5c3 9f3f 2047 b63e fab3 db3e cc22 823f
000002d0: 0f0f 913f 5098 603f 3c76 ca3e 6ccd 96be
000002e0: 9eea 863e 58dd 633e d19e d43e 2bf7 0540
000002f0: d382 a53f b6bf 9a3f ee7b aabe 04b6 e6be
00000300: 86bf e0be 773f 123f 2b46 283e d512 30bf
00000310: a97e a53f 639d 1c3f 295d 9b3f 0b97 5abe
00000320: 2f19 463f 67f4 05be 8bb3 2d3f d33e 93bd
00000330: 4394 a53f 62f4 ce3f 1b80 72be 0fd0 bb3e
00000340: 1a4a cabe b7ce ca3d ccda 10bf d759 2b3f
00000350: ee85 d43f 250c 0640 705f 833d a881 a33f
00000360: 2f4e 92be e0c2 3a3f 697f 8abe 0694 f73d
00000370: f810 273f bddb 0f40 b59a 1a3e c162 9cbf
00000380: ccc9 a3bd 2787 68be 45c4 0740 1891 423f
00000390: 840f 3e3f b808 ef3f 91e4 4bbf 2fcc 82bf
000003a0: 23c6 16bf 0be1 c6bd 10c8 1240 2327 55bf
000003b0: dba0 9a3e 2231 33bd 629a 423f 85e0 fc3f
000003c0: 9c53 9f3e dd6c 0abe 2422 593f a918 7f3f
000003d0: 27eb 9d3f 7c41 eebe cf85 cbbe 83f6 82bf
000003e0: ecc1 b9be 84f6 ec3f 06b5 433e 2d02 af3f
000003f0: 1ab7 b9be 1713 bcbe c0ca f9be 2079 bd3e
0.31495148 0.67307436 -0.21841963 0.62935317 0.65700865 0.86806005 0.11149063 0.056304142
-0.53863 0.8418706 0.9491838 0.26971766 0.52859586 1.2721356 -0.46917287 0.32204148
0.24011092 0.043734767 -0.18748915 0.03019153 0.044500783 0.37295088 1.4236302 0.29964623
1.2730193 0.36778417 0.3414484 0.07756863 1.6166728 -1.0724574 1.9906865 2.010246
-0.35886818 -0.68950623 -0.8594794 0.07098922 -0.866354 0.52294254 0.2631151 -0.86046696
1.4493923 1.8041868 -0.6445614 1.3160573 -0.58819264 2.1434236 1.1557513 -1.2931571
1.1083246 1.0537775 -0.10188862 -0.39645448 1.9173315 -0.6112395 0.90726745 1.550745
1.0307885 0.37552038 0.44223094 1.1902798 1.1549929 1.9054252 -0.8584471 -0.36987916
-0.22579901 0.082926564 0.46807936 -0.5251089 0.1344575 -0.090823695 0.09921651 0.25531256
0.8471018 0.76417905 -0.24896054 -0.8109544 -0.4275404 -0.8583133 1.1976014 1.5306686
-0.8610705 0.5760536 1.3336178 1.3067329 1.1851404 -0.5888267 1.2990509 1.6482269
0.10098652 0.7324726 1.26292 -0.332994 0.6555161 1.1214517 1.2320317 1.234511
-0.8600453 0.792979 0.120490216 1.0412979 -0.13201281 1.7830393 -0.85699385 -0.24284273
0.87489104 0.05254085 0.05709605 2.051657 -0.8575021 0.2683999 1.465384 -0.35609236
1.6612672 -0.758422 1.3322654 0.16864748 1.0133481 1.5206114 -0.11800872 1.1761053
1.496682 -1.2326908 -0.44367608 0.6421787 0.63210803 -0.4545786 -0.4548021 -0.85992086
2.4685237 -0.46275717 -0.008228814 1.2256414 -0.5632229 -0.43734396 1.8489459 0.55483437
1.254927 0.33558387 0.20980166 -1.125979 0.5995777 1.3450191 -0.28514278 0.89334077
-0.9227669 0.78394574 0.0511393 -0.8472635 -0.8109967 -0.1585271 -0.5086131 0.126661
1.8669902 -0.34203258 0.87814254 0.084078014 0.24025874 0.21894053 -0.4866749 -0.99330705
-0.53539085 -0.9290026 -0.8617621 -1.0148567 1.2007774 -0.35407835 -0.61187077 1.48866
1.3203481 -0.019152112 -0.8905743 0.18076307 -0.012660442 -0.09885874 -0.04122801 1.3160698
1.24816 0.3560114 0.4291075 1.0166869 1.133272 0.8773241 0.3954333 -0.294536
0.26350874 0.22252405 0.41527417 2.093211 1.2930549 1.2089756 -0.33297676 -0.45060742
-0.4389612 0.5712809 0.16433017 -0.68778735 1.2929279 0.61177653 1.2137805 -0.21346681
0.7738218 -0.13081513 0.67852086 -0.07189717 1.2935871 1.616833 -0.23681681 0.36682174
-0.3950966 0.09902709 -0.5658386 0.6693396 1.6603372 2.0944912 0.06414688 1.2773943
-0.28575274 0.72953606 -0.2705033 0.1208878 0.6526027 2.2477868 0.15098079 -1.2217637
-0.07997474 -0.22707807 2.1213543 0.76002645 0.74242425 1.8674536 -0.7964564 -1.0218562
-0.5889608 -0.09710892 2.2934608 -0.8326284 0.30200848 -0.04374803 0.7601682 1.9756018
0.31118476 -0.1351809 0.8481772 0.99647003 1.2337388 -0.46534336 -0.39750525 -1.023148
-0.36280763 1.8512731 0.19112024 1.3672539 -0.36272508 -0.36733314 -0.48787498 0.37006474

l1.bias f4 [8]
00000000: 204b 1b3d b484 133f 5a48 923f 2f34 523f
00000010: ab4c 103f 5488 0b3f 18d2 4c3f a84c 443f
0.03791344 0.57624364 1.142833 0.82110876 0.56366986 0.54504895 0.8000808 0.7667947

l2.weight f4 [8, 8]
00000000: 7b79 0240 471a f33f 0105 87bf 3a90 42bf
00000010: d0a8 193c e122 b53f dcd8 2f40 9322 61be
00000020: 1e15 22bf f213 bcbf 4cab dc3f 2478 50be
00000030: b715 50bf e2f5 91bf 3ba7 0540 1964 92bf
00000040: a37d 993f 1789 f13f eba8 90bd 785c a0bf
00000050: 8a0b 0540 484a 1540 49be 183f 6f52 41bf
00000060: da57 843f b807 6dbe dc21 03bf 29ad 0440
00000070: 5812 cabf 4528 d1bf 078d e83f a3f5 3c40
00000080: 67bd 00c0 2007 e03f bf2b 263e 93a5 ddbd
00000090: 11f6 df3f eaec 25bf 5dde dd3f a189 d03f
000000a0: dd9d 1240 881a a6bf 0802 1340 eab7 f6bf
000000b0: ab2d 93bf a676 0840 b815 8cbd 0019 bb3f
000000c0: 5142 cabe d909 be3f 7db0 a93f 30c5 1040
000000d0: f198 1f40 e7e8 a03f afd9 3bc0 73f7 ba3f
000000e0: 3bd9 2d40 4298 9a3f ac5e ee3f 57dc 0840
000000f0: 965e 983f 56ad 9f3e 6b02 193d 43f7 28c0
2.0386646 1.8992394 -1.0548402 -0.7600132 0.009378627 1.4151269 2.747611 -0.21985845
-0.6331347 -1.4693587 1.7239776 -0.2035833 -0.81283134 -1.1403162 2.088332 -1.1436797
1.1991466 1.8869962 -0.070634685 -1.2528219 2.0788293 2.3326588 0.5966535 -0.7551641
1.033931 -0.23147476 -0.5122354 2.0730689 -1.5786848 -1.6340414 1.8168038 2.9524925
-2.0115602 1.7502174 0.16227625 -0.108225964 1.7496969 -0.6481463 1.7333485 1.6292001
2.2908852 -1.2976847 2.296999 -1.9274876 -1.1498312 2.1322417 -0.0684008 1.4617004
-0.3950372 1.4846755 1.3256985 2.2620354 2.4937098 1.2571076 -2.9351614 1.4606766
2.7163837 1.2077715 1.8622642 2.1384485 1.1903865 0.31186932 0.03735582 -2.6400917

l2.bias f4 [8]
00000000: c617 36be 6e79 743f de5a 3dbf 1cc3 283f
00000010: 6824 123f b0e1 403f d794 603e 48fe c13e
-0.17782506 0.95497787 -0.7396678 0.65922713 0.570868 0.7534437 0.21931778 0.37889314

l3.weight f4 [42, 8]
00000000: 90ee e3bf bb62 b73f 55be aec0 f942 10bd
00000010: 50db 35c0 3668 613f 45dc debf c6e2 de3e
00000020: a319 27be 3e35 2fc0 18a3 cc3f b286 b8c0
00000030: c842 5ac0 5869 0fbf 61f0 093e 866c 5e3f
00000040: 52c3 fdbe 74ba c0c0 1a5f a1be 0a91 953e
00000050: 1260 0ac0 e6fe 903f bf69 213f 8ffd aebf
00000060: 2589 dc3e f6df 36bf 6f17 4e3f ddaf 13bf
00000070: e293 48bf a72b be3e 3396 38bf aa8a 8fbe
00000080: 6851 c9c0 0615 0fbe a44b 45c0 e527 a5bf
00000090: 8990 0ec0 4145 0abf fb4d 543f ea66 603f
000000a0: 8bf6 c9c0 80ed a93e 2a39 80c0 ae07 833f
000000b0: d748 c5c0 8536 5d3f 70a9 de3e 62ce 243f
000000c0: 5c2d 93c0 dac6 ebbd b961 f53d 2187 c0c0
000000d0: 4d89 57bf a217 ad3e 1772 c53e ea23 dbbe
000000e0: b6e2 bec0 fff9 4bbd d52f 17c0 75fe fa3c
000000f0: 58fa 343f e190 a5c0 09d4 463f ce06 c1be
00000100: 712e d7bf 2cf8 97be 2362 e23d 6bdc b7bf
00000110: b019 12c0 e599 0640 684d a03d 06ab eebf
00000120: ae32 37bf 70fb 7c3f 8148 b5bf e4ba edbd
00000130: 1efe 483f 45ce 90bf d6f7 1dc0 917c 7ebf
00000140: 2fdb 0ac0 d70e 03bc ed51 07c0 9ef6 38be
00000150: 9465 e1bf 3174 b8c0 a376 683e 37e9 9f3f
00000160: c795 793f ab29 85c0 d1ee 123f fdac 8fbe
00000170: d9be a5bf e809 98c0 ba0a 39bf 9457 403f
00000180: 93c2 e33e 399f fa3e 8e5c 2abf 7ff1 033f
00000190: 3e37 b5bf 4bb9 2cc0 afe5 8ac0 dfba 313f
000001a0: bf67 a0be a7b2 f9be bd15 76c0 5ff2 8c3f
000001b0: f818 d5be f76e 68c0 ffa4 dfbe 2ed6 b7be
000001c0: a29d bf3e 2aee 08c0 cda4 06bf 73fe 883f
000001d0: 0358 1fc0 c0e9 bb3f b5b5 27c0 a7e3 8bbf
000001e0: 71c7 a73d 9393 6e3f e825 b2c0 2dbc 933f
000001f0: 6444 7dbf 4042 80bf b8f0 4ac0 2736 1bbf
00000200: ac40 f93e b2d0 c2bf 6fc7 f23e b409 9fbd
00000210: 39b5 3e3f 9b0e 7abf 458f 8fbe 158f d1bf
00000220: 9842 7cc0 d20b cfbf 4763 8f3e e83e 46c0
00000230: cfa1 95bf 323c 6dc0 bf3f 483f 61df 833f
00000240: 03de a8bf b3d4 6a3d cc05 65c0 0662 4c3f
00000250: b36e 4cbf 5f90 6c3f 5fc6 0fbf 549a 26c0
00000260: b399 afbe 2905 7d3f 1c7b 85c0 5861 b63f
00000270: d6f7 f13e 7650 29c0 6545 c5bf 966d a6c0
00000280: 899d 99be 3a8b ae3f eb1f 67bf 9676 38bd
00000290: 148d 21bf 7059 bd3f f600 afc0 cf38 bbc0
000002a0: 6953 10c0 0dd8 953f 7eab 683e 2176 33c0
000002b0: 399e ad3f 66aa 6dc0 33bf 0dbf 6ac5 35bf
000002c0: fc0e 42c0 bf68 7a3f c11f 7ec0 b5c9 18be
000002d0: 58f2 ba3e c3a3 4fbf 2f75 0bbf 3d88 0ebf
000002e0: 8172 10c0 8133 5bbf b13c 19bf 3e44 d9bf
000002f0: b856 f2c0 124e b93f f22d 723f 7f30 453f
00000300: 15b9 a6c0 dfd8 a23f 142b c1bf c643 01c0
00000310: f972 09bf a09a e93d 0eca abbf 1096 8a3e
00000320: 6418 b1be 1182 5cbf c77d c9be 7d5d ec3e
00000330: f3bb c9bf ef05 973d 0033 223c 7fc8 323e
00000340: 5103 073f ca72 1dbf 5271 8d3f 90cf fac0
00000350: 9e57 8e3f 73e7 ce3e eae8 21bf a43b c0bf
00000360: 2e5e 18c0 4a66 67c0 1cd7 7bbe fe4f a6bf
00000370: 37b5 d83f 1eff 92c0 7ec5 903f 17cc b7bf
00000380: e6e2 c3bf d271 9c3f 6984 8bbf 47e3 0fc0
00000390: d476 033e 87b7 1e3f b1bf acc0 3a66 a13d
000003a0: 6658 fd3d a0f6 d7bc eabb ab3d 92c2 55be
000003b0: 802b 903e 00a7 e1c0 5eb7 00c0 b9fa 913d
000003c0: 0313 38bd c992 a6c0 aedb 393e af1f abbd
000003d0: 2262 3cbf 4572 b8bf 3455 713f 226b e1be
000003e0: 9840 3dc0 c673 f7be 2ff6 d8c0 3817 933f
000003f0: 4925 b2bf 2b51 dcbf 0c12 3b3f 62ef fc3d
-1.7807178 1.4327005 -5.460734 -0.03522012 -2.8415108 0.8804964 -1.7410971 0.4353239
-0.16318373 -2.7376246 1.5987272 -5.7664423 -3.410326 -0.56020117 0.13470604 0.86884344
-0.4956308 -6.0227604 -0.3151787 0.2921222 -2.1621137 1.1327789 0.6305198 -1.367113
0.43073383 -0.7143549 0.80504507 -0.5769022 -0.7835065 0.3714268 -0.72104186 -0.2803548
-6.2911873 -0.13972864 -3.0827417 -1.29028 -2.2275717 -0.54011923 0.8293149 0.87657034
-6.3113456 0.3318901 -4.006978 1.0236719 -6.1651416 0.86411315 0.43488646 0.64377415
-4.599287 -0.11512537 0.1198153 -6.016495 -0.8419388 0.33807093 0.38563606 -0.42800838
-5.9651747 -0.04979896 -2.3622944 0.030638913 0.70694494 -5.1739354 0.7766729 -0.37700504
-1.6811048 -0.29681528 0.11053874 -1.4364141 -2.2828178 2.103143 0.07827264 -1.8645942
-0.71561706 0.98821163 -1.4162751 -0.11607912 0.7851275 -1.1312948 -2.4682517 -0.99408823
-2.169628 -0.007999144 -2.1143754 -0.18062827 -1.7609124 -5.7641835 0.22701506 1.2493047
0.9749417 -4.1613364 0.57395655 -0.28061667 -1.2948867 -4.7512093 -0.7228199 0.75133634
0.44484386 0.48949602 -0.6654748 0.5154037 -1.4157484 -2.6988094 -4.3405375 0.6942577
-0.31329152 -0.48769113 -3.8450768 1.1011466 -0.41620612 -3.6317728 -0.4368057 -0.35905594
0.37424952 -2.1395364 -0.52595216 1.0702652 -2.4897468 1.468071 -2.6204655 -1.0928849
0.08192337 0.9319393 -5.567127 1.1541802 -0.9893248 -1.0020218 -3.1709423 -0.60629505
0.48682153 -1.5219939 0.4741778 -0.077655226 0.74495274 -0.97678536 -0.28038993 -1.637179
-3.9415646 -1.6175482 0.2800543 -3.0975895 -1.1690005 -3.706799 0.7822227 1.0302545
-1.3192753 0.057331752 -3.5784788 0.7983707 -0.79856414 0.9240779 -0.56162065 -2.6031694
-0.3429695 0.98836 -4.171278 1.4248457 0.47259396 -2.645536 -1.5411803 -5.200877
-0.30003002 1.3636239 -0.9028308 -0.045034967 -0.63105893 1.4792919 -5.4688673 -5.8506846
-2.255091 1.1706558 0.22721669 -2.804085 1.3563911 -3.7135253 -0.5536987 -0.71004355
-3.0321646 0.9781608 -3.970688 -0.14920695 0.3651302 -0.81109256 -0.5447568 -0.55676633
-2.2569888 -0.85625464 -0.5985823 -1.6973951 -7.573086 1.447695 0.94601357 0.77027124
-5.210093 1.2722434 -1.5091271 -2.0197616 -0.5369106 0.114064455 -1.3421037 0.27067614
-0.3458892 -0.86135966 -0.39353773 0.46165076 -1.5760483 0.073741786 0.009899855 0.17459296
0.52739435 -0.6150328 1.1050208 -7.837837 1.1120489 0.40410957 -0.63246024 -1.5018201
-2.3807483 -3.6156182 -0.24593776 -1.2993162 1.6930302 -4.593642 1.131027 -1.4359158
-1.5303619 1.2222235 -1.0899783 -2.248247 0.12838298 0.6199879 -5.3984 0.07880826
0.12370376 -0.026362717 0.08385451 -0.20875004 0.28158188 -7.0516357 -2.0111918 0.071279
-0.044940006 -5.205418 0.18150207 -0.083556525 -0.7358724 -1.4409872 0.94270635 -0.44027048
-2.9570675 -0.48330516 -6.7800517 1.1491461 -1.3917629 -1.721227 0.7307441 0.12350346

l3.bias f4 [42]
00000000: 4d4e f43e ffee b4bf 8ad6 93bd 7362 d1bd
00000010: fe5b bbbd aa83 a1be bd91 3e3d 558f 553f
00000020: fcf3 4cbf 85e9 fbbf 9a36 52bf ba78 41bf
00000030: 7f65 68bf ea90 e2be f3cf 03c0 9b28 8abe
00000040: ce77 d7be 000a f9be 9b2a f2be d8d5 763d
00000050: 61ed 13be 9b71 36bf aab4 54bf 1e9b a7bf
00000060: 916a 313d 5d12 b3bd 3658 82be 8782 3bbe
00000070: 350d 423f b62f 9bbd 2f4a 3dc0 6534 7c3e
00000080: efec c0be 0641 4d3f e64b 76bf 671a 60bf
00000090: 3b11 a9bf 2551 a1be 700d 613e 42b3 8ebe
000000a0: 593c 4f3f df4d d2bf
0.4771599 -1.4135436 -0.072186545 -0.10223856 -0.091484055 -0.31545764 0.046525706 0.8342183
-0.8005979 -1.968064 -0.82114565 -0.7557484 -0.9077987 -0.44251186 -2.0595672 -0.26984105
-0.4208359 -0.48640442 -0.4729813 0.06026253 -0.14446022 -0.712671 -0.8308817 -1.3094213
0.04331452 -0.08743737 -0.25457925 -0.18311511 0.758014 -0.075774595 -2.9576528 0.24629362
-0.37680766 0.8017734 -0.9620956 -0.87540287 -1.3208383 -0.3150722 0.21977782 -0.27871138
0.8095146 -1.6430014
